…
  File "/home/bossjung/anaconda3/envs/espnet/lib/python3.9/runpy.py", line 197, in _run_module_as_main
    return _run_code(code, main_globals, None,
  File "/home/bossjung/anaconda3/envs/espnet/lib/python3.9/runpy.py", line 87, in _run_code
    exec(code, run_globals)
  File "/home/bossjung/espnet/espnet/espnet2/bin/launch.py", line 384, in <module>
    main()
  File "/home/bossjung/espnet/espnet/espnet2/bin/launch.py", line 375, in main
    raise RuntimeError(
RuntimeError: 
################### The last 1000 lines of exp/asr_train_asr_raw_en_bpe1000_sp/train.log ###################
            (mamba): Mamba(
              (in_proj): Linear(in_features=256, out_features=1024, bias=False)
              (conv1d): Conv1d(512, 512, kernel_size=(4,), stride=(1,), padding=(3,), groups=512)
              (act): SiLU()
              (x_proj): Linear(in_features=512, out_features=48, bias=False)
              (dt_proj): Linear(in_features=16, out_features=512, bias=True)
              (conv1d_b): Conv1d(512, 512, kernel_size=(4,), stride=(1,), padding=(3,), groups=512)
              (x_proj_b): Linear(in_features=512, out_features=48, bias=False)
              (dt_proj_b): Linear(in_features=16, out_features=512, bias=True)
              (out_proj): Linear(in_features=512, out_features=256, bias=False)
            )
          )
          (3-5): 3 x IdentityModule()
        )
        (pre_norms): ModuleList(
          (0): Identity()
          (1-2): 2 x LayerNorm((256,), eps=1e-12, elementwise_affine=True)
          (3-5): 3 x Identity()
        )
      )
    )
    (after_norm): LayerNorm((256,), eps=1e-12, elementwise_affine=True)
  )
  (criterion_att): LabelSmoothingLoss(
    (criterion): KLDivLoss()
  )
  (ctc): CTC(
    (ctc_lo): Linear(in_features=256, out_features=1000, bias=True)
    (ctc_loss): CTCLoss()
  )
)

Model summary:
    Class Name: ESPnetASRModel
    Total Number of model parameters: 13.68 M
    Number of trainable parameters: 13.68 M (100.0%)
    Size: 54.73 MB
    Type: torch.float32
[bossjung-System-Product-Name] 2025-11-25 14:50:54,086 (abs_task:1459) INFO: Optimizer:
AdamW (
Parameter Group 0
    amsgrad: False
…
