…
  File "/home/gpuadmin/anaconda3/envs/junghc/lib/python3.10/runpy.py", line 196, in _run_module_as_main
    return _run_code(code, main_globals, None,
  File "/home/gpuadmin/anaconda3/envs/junghc/lib/python3.10/runpy.py", line 86, in _run_code
    exec(code, run_globals)
  File "/home/gpuadmin/espnet/espnet2/bin/launch.py", line 384, in <module>
    main()
  File "/home/gpuadmin/espnet/espnet2/bin/launch.py", line 375, in main
    raise RuntimeError(
RuntimeError: 
################### The last 1000 lines of exp/asr_train_asr_raw_en_bpe1000_sp/train.log ###################
      (7): MambaCellBlock(
        (final_norm): LayerNorm((256,), eps=1e-12, elementwise_affine=True)
        (modules_list): ModuleList(
          (0-2): 3 x IdentityModule()
          (3): ConvolutionModuleWrapper(
            (conv): ConvolutionModule(
              (pointwise_conv1): Conv1d(256, 512, kernel_size=(1,), stride=(1,))
              (depthwise_conv): Conv1d(256, 256, kernel_size=(31,), stride=(1,), padding=(15,), groups=256)
              (norm): BatchNorm1d(256, eps=1e-05, momentum=0.1, affine=True, track_running_stats=True)
              (pointwise_conv2): Conv1d(256, 256, kernel_size=(1,), stride=(1,))
              (activation): Swish()
            )
          )
          (4): BiMambaModule(
            (mamba): Mamba(
              (in_proj): Linear(in_features=256, out_features=1024, bias=False)
              (conv1d): Conv1d(512, 512, kernel_size=(4,), stride=(1,), padding=(3,), groups=512)
              (act): SiLU()
              (x_proj): Linear(in_features=512, out_features=48, bias=False)
              (dt_proj): Linear(in_features=16, out_features=512, bias=True)
              (conv1d_b): Conv1d(512, 512, kernel_size=(4,), stride=(1,), padding=(3,), groups=512)
              (x_proj_b): Linear(in_features=512, out_features=48, bias=False)
              (dt_proj_b): Linear(in_features=16, out_features=512, bias=True)
              (out_proj): Linear(in_features=512, out_features=256, bias=False)
            )
          )
        )
        (pre_norms): ModuleList(
          (0-2): 3 x Identity()
          (3-4): 2 x LayerNorm((256,), eps=1e-12, elementwise_affine=True)
        )
      )
      (8): MambaCellBlock(
        (final_norm): LayerNorm((256,), eps=1e-12, elementwise_affine=True)
        (modules_list): ModuleList(
          (0-2): 3 x IdentityModule()
          (3): ConvolutionModuleWrapper(
            (conv): ConvolutionModule(
              (pointwise_conv1): Conv1d(256, 512, kernel_size=(1,), stride=(1,))
              (depthwise_conv): Conv1d(256, 256, kernel_size=(31,), stride=(1,), padding=(15,), groups=256)
              (norm): BatchNorm1d(256, eps=1e-05, momentum=0.1, affine=True, track_running_stats=True)
              (pointwise_conv2): Conv1d(256, 256, kernel_size=(1,), stride=(1,))
              (activation): Swish()
            )
          )
          (4): BiMambaModule(
            (mamba): Mamba(
              (in_proj): Linear(in_features=256, out_features=1024, bias=False)
              (conv1d): Conv1d(512, 512, kernel_size=(4,), stride=(1,), padding=(3,), groups=512)
              (act): SiLU()
              (x_proj): Linear(in_features=512, out_features=48, bias=False)
              (dt_proj): Linear(in_features=16, out_features=512, bias=True)
              (conv1d_b): Conv1d(512, 512, kernel_size=(4,), stride=(1,), padding=(3,), groups=512)
              (x_proj_b): Linear(in_features=512, out_features=48, bias=False)
              (dt_proj_b): Linear(in_features=16, out_features=512, bias=True)
              (out_proj): Linear(in_features=512, out_features=256, bias=False)
            )
          )
        )
        (pre_norms): ModuleList(
          (0-2): 3 x Identity()
          (3-4): 2 x LayerNorm((256,), eps=1e-12, elementwise_affine=True)
        )
      )
      (9): MambaCellBlock(
        (final_norm): LayerNorm((256,), eps=1e-12, elementwise_affine=True)
        (modules_list): ModuleList(
          (0-2): 3 x IdentityModule()
          (3): ConvolutionModuleWrapper(
            (conv): ConvolutionModule(
              (pointwise_conv1): Conv1d(256, 512, kernel_size=(1,), stride=(1,))
              (depthwise_conv): Conv1d(256, 256, kernel_size=(31,), stride=(1,), padding=(15,), groups=256)
              (norm): BatchNorm1d(256, eps=1e-05, momentum=0.1, affine=True, track_running_stats=True)
              (pointwise_conv2): Conv1d(256, 256, kernel_size=(1,), stride=(1,))
              (activation): Swish()
            )
          )
          (4): BiMambaModule(
            (mamba): Mamba(
              (in_proj): Linear(in_features=256, out_features=1024, bias=False)
              (conv1d): Conv1d(512, 512, kernel_size=(4,), stride=(1,), padding=(3,), groups=512)
              (act): SiLU()
              (x_proj): Linear(in_features=512, out_features=48, bias=False)
              (dt_proj): Linear(in_features=16, out_features=512, bias=True)
              (conv1d_b): Conv1d(512, 512, kernel_size=(4,), stride=(1,), padding=(3,), groups=512)
              (x_proj_b): Linear(in_features=512, out_features=48, bias=False)
              (dt_proj_b): Linear(in_features=16, out_features=512, bias=True)
              (out_proj): Linear(in_features=512, out_features=256, bias=False)
            )
          )
        )
        (pre_norms): ModuleList(
          (0-2): 3 x Identity()
          (3-4): 2 x LayerNorm((256,), eps=1e-12, elementwise_affine=True)
        )
      )
      (10): MambaCellBlock(
        (final_norm): LayerNorm((256,), eps=1e-12, elementwise_affine=True)
        (modules_list): ModuleList(
          (0-2): 3 x IdentityModule()
          (3): ConvolutionModuleWrapper(
            (conv): ConvolutionModule(
              (pointwise_conv1): Conv1d(256, 512, kernel_size=(1,), stride=(1,))
              (depthwise_conv): Conv1d(256, 256, kernel_size=(31,), stride=(1,), padding=(15,), groups=256)
              (norm): BatchNorm1d(256, eps=1e-05, momentum=0.1, affine=True, track_running_stats=True)
              (pointwise_conv2): Conv1d(256, 256, kernel_size=(1,), stride=(1,))
              (activation): Swish()
            )
          )
          (4): BiMambaModule(
            (mamba): Mamba(
              (in_proj): Linear(in_features=256, out_features=1024, bias=False)
              (conv1d): Conv1d(512, 512, kernel_size=(4,), stride=(1,), padding=(3,), groups=512)
              (act): SiLU()
              (x_proj): Linear(in_features=512, out_features=48, bias=False)
              (dt_proj): Linear(in_features=16, out_features=512, bias=True)
              (conv1d_b): Conv1d(512, 512, kernel_size=(4,), stride=(1,), padding=(3,), groups=512)
              (x_proj_b): Linear(in_features=512, out_features=48, bias=False)
              (dt_proj_b): Linear(in_features=16, out_features=512, bias=True)
              (out_proj): Linear(in_features=512, out_features=256, bias=False)
            )
          )
        )
        (pre_norms): ModuleList(
          (0-2): 3 x Identity()
          (3-4): 2 x LayerNorm((256,), eps=1e-12, elementwise_affine=True)
        )
      )
      (11): MambaCellBlock(
        (final_norm): LayerNorm((256,), eps=1e-12, elementwise_affine=True)
        (modules_list): ModuleList(
          (0-2): 3 x IdentityModule()
          (3): ConvolutionModuleWrapper(
            (conv): ConvolutionModule(
              (pointwise_conv1): Conv1d(256, 512, kernel_size=(1,), stride=(1,))
              (depthwise_conv): Conv1d(256, 256, kernel_size=(31,), stride=(1,), padding=(15,), groups=256)
              (norm): BatchNorm1d(256, eps=1e-05, momentum=0.1, affine=True, track_running_stats=True)
              (pointwise_conv2): Conv1d(256, 256, kernel_size=(1,), stride=(1,))
              (activation): Swish()
            )
          )
          (4): BiMambaModule(
            (mamba): Mamba(
              (in_proj): Linear(in_features=256, out_features=1024, bias=False)
              (conv1d): Conv1d(512, 512, kernel_size=(4,), stride=(1,), padding=(3,), groups=512)
              (act): SiLU()
              (x_proj): Linear(in_features=512, out_features=48, bias=False)
              (dt_proj): Linear(in_features=16, out_features=512, bias=True)
              (conv1d_b): Conv1d(512, 512, kernel_size=(4,), stride=(1,), padding=(3,), groups=512)
              (x_proj_b): Linear(in_features=512, out_features=48, bias=False)
              (dt_proj_b): Linear(in_features=16, out_features=512, bias=True)
              (out_proj): Linear(in_features=512, out_features=256, bias=False)
            )
          )
        )
        (pre_norms): ModuleList(
          (0-2): 3 x Identity()
          (3-4): 2 x LayerNorm((256,), eps=1e-12, elementwise_affine=True)
        )
      )
      (12): MambaCellBlock(
        (final_norm): LayerNorm((256,), eps=1e-12, elementwise_affine=True)
        (modules_list): ModuleList(
          (0-2): 3 x IdentityModule()
          (3): ConvolutionModuleWrapper(
            (conv): ConvolutionModule(
              (pointwise_conv1): Conv1d(256, 512, kernel_size=(1,), stride=(1,))
              (depthwise_conv): Conv1d(256, 256, kernel_size=(31,), stride=(1,), padding=(15,), groups=256)
              (norm): BatchNorm1d(256, eps=1e-05, momentum=0.1, affine=True, track_running_stats=True)
              (pointwise_conv2): Conv1d(256, 256, kernel_size=(1,), stride=(1,))
              (activation): Swish()
            )
          )
          (4): BiMambaModule(
            (mamba): Mamba(
              (in_proj): Linear(in_features=256, out_features=1024, bias=False)
              (conv1d): Conv1d(512, 512, kernel_size=(4,), stride=(1,), padding=(3,), groups=512)
              (act): SiLU()
              (x_proj): Linear(in_features=512, out_features=48, bias=False)
              (dt_proj): Linear(in_features=16, out_features=512, bias=True)
              (conv1d_b): Conv1d(512, 512, kernel_size=(4,), stride=(1,), padding=(3,), groups=512)
              (x_proj_b): Linear(in_features=512, out_features=48, bias=False)
              (dt_proj_b): Linear(in_features=16, out_features=512, bias=True)
              (out_proj): Linear(in_features=512, out_features=256, bias=False)
            )
          )
        )
        (pre_norms): ModuleList(
          (0-2): 3 x Identity()
          (3-4): 2 x LayerNorm((256,), eps=1e-12, elementwise_affine=True)
        )
      )
      (13): MambaCellBlock(
        (final_norm): LayerNorm((256,), eps=1e-12, elementwise_affine=True)
        (modules_list): ModuleList(
          (0-2): 3 x IdentityModule()
          (3): ConvolutionModuleWrapper(
            (conv): ConvolutionModule(
              (pointwise_conv1): Conv1d(256, 512, kernel_size=(1,), stride=(1,))
              (depthwise_conv): Conv1d(256, 256, kernel_size=(31,), stride=(1,), padding=(15,), groups=256)
              (norm): BatchNorm1d(256, eps=1e-05, momentum=0.1, affine=True, track_running_stats=True)
              (pointwise_conv2): Conv1d(256, 256, kernel_size=(1,), stride=(1,))
              (activation): Swish()
            )
          )
          (4): BiMambaModule(
            (mamba): Mamba(
              (in_proj): Linear(in_features=256, out_features=1024, bias=False)
              (conv1d): Conv1d(512, 512, kernel_size=(4,), stride=(1,), padding=(3,), groups=512)
              (act): SiLU()
              (x_proj): Linear(in_features=512, out_features=48, bias=False)
              (dt_proj): Linear(in_features=16, out_features=512, bias=True)
              (conv1d_b): Conv1d(512, 512, kernel_size=(4,), stride=(1,), padding=(3,), groups=512)
              (x_proj_b): Linear(in_features=512, out_features=48, bias=False)
              (dt_proj_b): Linear(in_features=16, out_features=512, bias=True)
              (out_proj): Linear(in_features=512, out_features=256, bias=False)
            )
          )
        )
        (pre_norms): ModuleList(
          (0-2): 3 x Identity()
          (3-4): 2 x LayerNorm((256,), eps=1e-12, elementwise_affine=True)
        )
      )
      (14): MambaCellBlock(
        (final_norm): LayerNorm((256,), eps=1e-12, elementwise_affine=True)
        (modules_list): ModuleList(
          (0-2): 3 x IdentityModule()
          (3): ConvolutionModuleWrapper(
            (conv): ConvolutionModule(
              (pointwise_conv1): Conv1d(256, 512, kernel_size=(1,), stride=(1,))
              (depthwise_conv): Conv1d(256, 256, kernel_size=(31,), stride=(1,), padding=(15,), groups=256)
              (norm): BatchNorm1d(256, eps=1e-05, momentum=0.1, affine=True, track_running_stats=True)
              (pointwise_conv2): Conv1d(256, 256, kernel_size=(1,), stride=(1,))
              (activation): Swish()
            )
          )
          (4): BiMambaModule(
            (mamba): Mamba(
              (in_proj): Linear(in_features=256, out_features=1024, bias=False)
              (conv1d): Conv1d(512, 512, kernel_size=(4,), stride=(1,), padding=(3,), groups=512)
              (act): SiLU()
              (x_proj): Linear(in_features=512, out_features=48, bias=False)
              (dt_proj): Linear(in_features=16, out_features=512, bias=True)
              (conv1d_b): Conv1d(512, 512, kernel_size=(4,), stride=(1,), padding=(3,), groups=512)
              (x_proj_b): Linear(in_features=512, out_features=48, bias=False)
              (dt_proj_b): Linear(in_features=16, out_features=512, bias=True)
              (out_proj): Linear(in_features=512, out_features=256, bias=False)
            )
          )
        )
        (pre_norms): ModuleList(
          (0-2): 3 x Identity()
          (3-4): 2 x LayerNorm((256,), eps=1e-12, elementwise_affine=True)
        )
      )
      (15): MambaCellBlock(
        (final_norm): LayerNorm((256,), eps=1e-12, elementwise_affine=True)
        (modules_list): ModuleList(
          (0-2): 3 x IdentityModule()
          (3): ConvolutionModuleWrapper(
            (conv): ConvolutionModule(
              (pointwise_conv1): Conv1d(256, 512, kernel_size=(1,), stride=(1,))
              (depthwise_conv): Conv1d(256, 256, kernel_size=(31,), stride=(1,), padding=(15,), groups=256)
              (norm): BatchNorm1d(256, eps=1e-05, momentum=0.1, affine=True, track_running_stats=True)
              (pointwise_conv2): Conv1d(256, 256, kernel_size=(1,), stride=(1,))
              (activation): Swish()
            )
          )
          (4): BiMambaModule(
            (mamba): Mamba(
              (in_proj): Linear(in_features=256, out_features=1024, bias=False)
              (conv1d): Conv1d(512, 512, kernel_size=(4,), stride=(1,), padding=(3,), groups=512)
              (act): SiLU()
              (x_proj): Linear(in_features=512, out_features=48, bias=False)
              (dt_proj): Linear(in_features=16, out_features=512, bias=True)
              (conv1d_b): Conv1d(512, 512, kernel_size=(4,), stride=(1,), padding=(3,), groups=512)
              (x_proj_b): Linear(in_features=512, out_features=48, bias=False)
              (dt_proj_b): Linear(in_features=16, out_features=512, bias=True)
              (out_proj): Linear(in_features=512, out_features=256, bias=False)
            )
          )
        )
        (pre_norms): ModuleList(
          (0-2): 3 x Identity()
          (3-4): 2 x LayerNorm((256,), eps=1e-12, elementwise_affine=True)
        )
      )
      (16): MambaCellBlock(
        (final_norm): LayerNorm((256,), eps=1e-12, elementwise_affine=True)
        (modules_list): ModuleList(
          (0-2): 3 x IdentityModule()
          (3): ConvolutionModuleWrapper(
            (conv): ConvolutionModule(
              (pointwise_conv1): Conv1d(256, 512, kernel_size=(1,), stride=(1,))
              (depthwise_conv): Conv1d(256, 256, kernel_size=(31,), stride=(1,), padding=(15,), groups=256)
              (norm): BatchNorm1d(256, eps=1e-05, momentum=0.1, affine=True, track_running_stats=True)
              (pointwise_conv2): Conv1d(256, 256, kernel_size=(1,), stride=(1,))
              (activation): Swish()
            )
          )
          (4): BiMambaModule(
            (mamba): Mamba(
              (in_proj): Linear(in_features=256, out_features=1024, bias=False)
              (conv1d): Conv1d(512, 512, kernel_size=(4,), stride=(1,), padding=(3,), groups=512)
              (act): SiLU()
              (x_proj): Linear(in_features=512, out_features=48, bias=False)
              (dt_proj): Linear(in_features=16, out_features=512, bias=True)
              (conv1d_b): Conv1d(512, 512, kernel_size=(4,), stride=(1,), padding=(3,), groups=512)
              (x_proj_b): Linear(in_features=512, out_features=48, bias=False)
              (dt_proj_b): Linear(in_features=16, out_features=512, bias=True)
              (out_proj): Linear(in_features=512, out_features=256, bias=False)
            )
          )
        )
        (pre_norms): ModuleList(
          (0-2): 3 x Identity()
          (3-4): 2 x LayerNorm((256,), eps=1e-12, elementwise_affine=True)
        )
      )
      (17): MambaCellBlock(
        (final_norm): LayerNorm((256,), eps=1e-12, elementwise_affine=True)
        (modules_list): ModuleList(
          (0-2): 3 x IdentityModule()
          (3): ConvolutionModuleWrapper(
            (conv): ConvolutionModule(
              (pointwise_conv1): Conv1d(256, 512, kernel_size=(1,), stride=(1,))
              (depthwise_conv): Conv1d(256, 256, kernel_size=(31,), stride=(1,), padding=(15,), groups=256)
              (norm): BatchNorm1d(256, eps=1e-05, momentum=0.1, affine=True, track_running_stats=True)
              (pointwise_conv2): Conv1d(256, 256, kernel_size=(1,), stride=(1,))
              (activation): Swish()
            )
          )
          (4): BiMambaModule(
            (mamba): Mamba(
              (in_proj): Linear(in_features=256, out_features=1024, bias=False)
              (conv1d): Conv1d(512, 512, kernel_size=(4,), stride=(1,), padding=(3,), groups=512)
              (act): SiLU()
              (x_proj): Linear(in_features=512, out_features=48, bias=False)
              (dt_proj): Linear(in_features=16, out_features=512, bias=True)
              (conv1d_b): Conv1d(512, 512, kernel_size=(4,), stride=(1,), padding=(3,), groups=512)
              (x_proj_b): Linear(in_features=512, out_features=48, bias=False)
              (dt_proj_b): Linear(in_features=16, out_features=512, bias=True)
              (out_proj): Linear(in_features=512, out_features=256, bias=False)
            )
          )
        )
        (pre_norms): ModuleList(
          (0-2): 3 x Identity()
          (3-4): 2 x LayerNorm((256,), eps=1e-12, elementwise_affine=True)
        )
      )
      (18): MambaCellBlock(
        (final_norm): LayerNorm((256,), eps=1e-12, elementwise_affine=True)
        (modules_list): ModuleList(
          (0-2): 3 x IdentityModule()
          (3): ConvolutionModuleWrapper(
            (conv): ConvolutionModule(
              (pointwise_conv1): Conv1d(256, 512, kernel_size=(1,), stride=(1,))
              (depthwise_conv): Conv1d(256, 256, kernel_size=(31,), stride=(1,), padding=(15,), groups=256)
              (norm): BatchNorm1d(256, eps=1e-05, momentum=0.1, affine=True, track_running_stats=True)
              (pointwise_conv2): Conv1d(256, 256, kernel_size=(1,), stride=(1,))
              (activation): Swish()
            )
          )
          (4): BiMambaModule(
            (mamba): Mamba(
              (in_proj): Linear(in_features=256, out_features=1024, bias=False)
              (conv1d): Conv1d(512, 512, kernel_size=(4,), stride=(1,), padding=(3,), groups=512)
              (act): SiLU()
              (x_proj): Linear(in_features=512, out_features=48, bias=False)
              (dt_proj): Linear(in_features=16, out_features=512, bias=True)
              (conv1d_b): Conv1d(512, 512, kernel_size=(4,), stride=(1,), padding=(3,), groups=512)
              (x_proj_b): Linear(in_features=512, out_features=48, bias=False)
              (dt_proj_b): Linear(in_features=16, out_features=512, bias=True)
              (out_proj): Linear(in_features=512, out_features=256, bias=False)
            )
          )
        )
        (pre_norms): ModuleList(
          (0-2): 3 x Identity()
          (3-4): 2 x LayerNorm((256,), eps=1e-12, elementwise_affine=True)
        )
      )
      (19): MambaCellBlock(
        (final_norm): LayerNorm((256,), eps=1e-12, elementwise_affine=True)
        (modules_list): ModuleList(
          (0-2): 3 x IdentityModule()
          (3): ConvolutionModuleWrapper(
            (conv): ConvolutionModule(
              (pointwise_conv1): Conv1d(256, 512, kernel_size=(1,), stride=(1,))
              (depthwise_conv): Conv1d(256, 256, kernel_size=(31,), stride=(1,), padding=(15,), groups=256)
              (norm): BatchNorm1d(256, eps=1e-05, momentum=0.1, affine=True, track_running_stats=True)
              (pointwise_conv2): Conv1d(256, 256, kernel_size=(1,), stride=(1,))
              (activation): Swish()
            )
          )
          (4): BiMambaModule(
            (mamba): Mamba(
              (in_proj): Linear(in_features=256, out_features=1024, bias=False)
              (conv1d): Conv1d(512, 512, kernel_size=(4,), stride=(1,), padding=(3,), groups=512)
              (act): SiLU()
              (x_proj): Linear(in_features=512, out_features=48, bias=False)
              (dt_proj): Linear(in_features=16, out_features=512, bias=True)
              (conv1d_b): Conv1d(512, 512, kernel_size=(4,), stride=(1,), padding=(3,), groups=512)
              (x_proj_b): Linear(in_features=512, out_features=48, bias=False)
              (dt_proj_b): Linear(in_features=16, out_features=512, bias=True)
              (out_proj): Linear(in_features=512, out_features=256, bias=False)
            )
          )
        )
        (pre_norms): ModuleList(
          (0-2): 3 x Identity()
          (3-4): 2 x LayerNorm((256,), eps=1e-12, elementwise_affine=True)
        )
      )
      (20): MambaCellBlock(
        (final_norm): LayerNorm((256,), eps=1e-12, elementwise_affine=True)
        (modules_list): ModuleList(
          (0-2): 3 x IdentityModule()
          (3): ConvolutionModuleWrapper(
            (conv): ConvolutionModule(
              (pointwise_conv1): Conv1d(256, 512, kernel_size=(1,), stride=(1,))
              (depthwise_conv): Conv1d(256, 256, kernel_size=(31,), stride=(1,), padding=(15,), groups=256)
              (norm): BatchNorm1d(256, eps=1e-05, momentum=0.1, affine=True, track_running_stats=True)
              (pointwise_conv2): Conv1d(256, 256, kernel_size=(1,), stride=(1,))
              (activation): Swish()
            )
          )
          (4): BiMambaModule(
            (mamba): Mamba(
              (in_proj): Linear(in_features=256, out_features=1024, bias=False)
              (conv1d): Conv1d(512, 512, kernel_size=(4,), stride=(1,), padding=(3,), groups=512)
              (act): SiLU()
              (x_proj): Linear(in_features=512, out_features=48, bias=False)
              (dt_proj): Linear(in_features=16, out_features=512, bias=True)
              (conv1d_b): Conv1d(512, 512, kernel_size=(4,), stride=(1,), padding=(3,), groups=512)
              (x_proj_b): Linear(in_features=512, out_features=48, bias=False)
              (dt_proj_b): Linear(in_features=16, out_features=512, bias=True)
              (out_proj): Linear(in_features=512, out_features=256, bias=False)
            )
          )
        )
        (pre_norms): ModuleList(
          (0-2): 3 x Identity()
          (3-4): 2 x LayerNorm((256,), eps=1e-12, elementwise_affine=True)
        )
      )
      (21): MambaCellBlock(
        (final_norm): LayerNorm((256,), eps=1e-12, elementwise_affine=True)
        (modules_list): ModuleList(
          (0-2): 3 x IdentityModule()
          (3): ConvolutionModuleWrapper(
            (conv): ConvolutionModule(
              (pointwise_conv1): Conv1d(256, 512, kernel_size=(1,), stride=(1,))
              (depthwise_conv): Conv1d(256, 256, kernel_size=(31,), stride=(1,), padding=(15,), groups=256)
              (norm): BatchNorm1d(256, eps=1e-05, momentum=0.1, affine=True, track_running_stats=True)
              (pointwise_conv2): Conv1d(256, 256, kernel_size=(1,), stride=(1,))
              (activation): Swish()
            )
          )
          (4): BiMambaModule(
            (mamba): Mamba(
              (in_proj): Linear(in_features=256, out_features=1024, bias=False)
              (conv1d): Conv1d(512, 512, kernel_size=(4,), stride=(1,), padding=(3,), groups=512)
              (act): SiLU()
              (x_proj): Linear(in_features=512, out_features=48, bias=False)
              (dt_proj): Linear(in_features=16, out_features=512, bias=True)
              (conv1d_b): Conv1d(512, 512, kernel_size=(4,), stride=(1,), padding=(3,), groups=512)
              (x_proj_b): Linear(in_features=512, out_features=48, bias=False)
              (dt_proj_b): Linear(in_features=16, out_features=512, bias=True)
              (out_proj): Linear(in_features=512, out_features=256, bias=False)
            )
          )
        )
        (pre_norms): ModuleList(
          (0-2): 3 x Identity()
          (3-4): 2 x LayerNorm((256,), eps=1e-12, elementwise_affine=True)
        )
      )
      (22): MambaCellBlock(
        (final_norm): LayerNorm((256,), eps=1e-12, elementwise_affine=True)
        (modules_list): ModuleList(
          (0-2): 3 x IdentityModule()
          (3): ConvolutionModuleWrapper(
            (conv): ConvolutionModule(
              (pointwise_conv1): Conv1d(256, 512, kernel_size=(1,), stride=(1,))
              (depthwise_conv): Conv1d(256, 256, kernel_size=(31,), stride=(1,), padding=(15,), groups=256)
              (norm): BatchNorm1d(256, eps=1e-05, momentum=0.1, affine=True, track_running_stats=True)
              (pointwise_conv2): Conv1d(256, 256, kernel_size=(1,), stride=(1,))
              (activation): Swish()
            )
          )
          (4): BiMambaModule(
            (mamba): Mamba(
              (in_proj): Linear(in_features=256, out_features=1024, bias=False)
              (conv1d): Conv1d(512, 512, kernel_size=(4,), stride=(1,), padding=(3,), groups=512)
              (act): SiLU()
              (x_proj): Linear(in_features=512, out_features=48, bias=False)
              (dt_proj): Linear(in_features=16, out_features=512, bias=True)
              (conv1d_b): Conv1d(512, 512, kernel_size=(4,), stride=(1,), padding=(3,), groups=512)
              (x_proj_b): Linear(in_features=512, out_features=48, bias=False)
              (dt_proj_b): Linear(in_features=16, out_features=512, bias=True)
              (out_proj): Linear(in_features=512, out_features=256, bias=False)
            )
          )
        )
        (pre_norms): ModuleList(
          (0-2): 3 x Identity()
          (3-4): 2 x LayerNorm((256,), eps=1e-12, elementwise_affine=True)
        )
      )
      (23): MambaCellBlock(
        (final_norm): LayerNorm((256,), eps=1e-12, elementwise_affine=True)
        (modules_list): ModuleList(
          (0-2): 3 x IdentityModule()
          (3): ConvolutionModuleWrapper(
            (conv): ConvolutionModule(
              (pointwise_conv1): Conv1d(256, 512, kernel_size=(1,), stride=(1,))
              (depthwise_conv): Conv1d(256, 256, kernel_size=(31,), stride=(1,), padding=(15,), groups=256)
              (norm): BatchNorm1d(256, eps=1e-05, momentum=0.1, affine=True, track_running_stats=True)
              (pointwise_conv2): Conv1d(256, 256, kernel_size=(1,), stride=(1,))
              (activation): Swish()
            )
          )
          (4): BiMambaModule(
            (mamba): Mamba(
              (in_proj): Linear(in_features=256, out_features=1024, bias=False)
              (conv1d): Conv1d(512, 512, kernel_size=(4,), stride=(1,), padding=(3,), groups=512)
              (act): SiLU()
              (x_proj): Linear(in_features=512, out_features=48, bias=False)
              (dt_proj): Linear(in_features=16, out_features=512, bias=True)
              (conv1d_b): Conv1d(512, 512, kernel_size=(4,), stride=(1,), padding=(3,), groups=512)
              (x_proj_b): Linear(in_features=512, out_features=48, bias=False)
              (dt_proj_b): Linear(in_features=16, out_features=512, bias=True)
              (out_proj): Linear(in_features=512, out_features=256, bias=False)
            )
          )
        )
        (pre_norms): ModuleList(
          (0-2): 3 x Identity()
          (3-4): 2 x LayerNorm((256,), eps=1e-12, elementwise_affine=True)
        )
      )
      (24): MambaCellBlock(
        (final_norm): LayerNorm((256,), eps=1e-12, elementwise_affine=True)
        (modules_list): ModuleList(
          (0-2): 3 x IdentityModule()
          (3): ConvolutionModuleWrapper(
            (conv): ConvolutionModule(
              (pointwise_conv1): Conv1d(256, 512, kernel_size=(1,), stride=(1,))
              (depthwise_conv): Conv1d(256, 256, kernel_size=(31,), stride=(1,), padding=(15,), groups=256)
              (norm): BatchNorm1d(256, eps=1e-05, momentum=0.1, affine=True, track_running_stats=True)
              (pointwise_conv2): Conv1d(256, 256, kernel_size=(1,), stride=(1,))
              (activation): Swish()
            )
          )
          (4): BiMambaModule(
            (mamba): Mamba(
              (in_proj): Linear(in_features=256, out_features=1024, bias=False)
              (conv1d): Conv1d(512, 512, kernel_size=(4,), stride=(1,), padding=(3,), groups=512)
              (act): SiLU()
              (x_proj): Linear(in_features=512, out_features=48, bias=False)
              (dt_proj): Linear(in_features=16, out_features=512, bias=True)
              (conv1d_b): Conv1d(512, 512, kernel_size=(4,), stride=(1,), padding=(3,), groups=512)
              (x_proj_b): Linear(in_features=512, out_features=48, bias=False)
              (dt_proj_b): Linear(in_features=16, out_features=512, bias=True)
              (out_proj): Linear(in_features=512, out_features=256, bias=False)
            )
          )
        )
        (pre_norms): ModuleList(
          (0-2): 3 x Identity()
          (3-4): 2 x LayerNorm((256,), eps=1e-12, elementwise_affine=True)
        )
      )
      (25): MambaCellBlock(
        (final_norm): LayerNorm((256,), eps=1e-12, elementwise_affine=True)
        (modules_list): ModuleList(
          (0-2): 3 x IdentityModule()
          (3): ConvolutionModuleWrapper(
            (conv): ConvolutionModule(
              (pointwise_conv1): Conv1d(256, 512, kernel_size=(1,), stride=(1,))
              (depthwise_conv): Conv1d(256, 256, kernel_size=(31,), stride=(1,), padding=(15,), groups=256)
              (norm): BatchNorm1d(256, eps=1e-05, momentum=0.1, affine=True, track_running_stats=True)
              (pointwise_conv2): Conv1d(256, 256, kernel_size=(1,), stride=(1,))
              (activation): Swish()
            )
          )
          (4): BiMambaModule(
            (mamba): Mamba(
              (in_proj): Linear(in_features=256, out_features=1024, bias=False)
              (conv1d): Conv1d(512, 512, kernel_size=(4,), stride=(1,), padding=(3,), groups=512)
              (act): SiLU()
              (x_proj): Linear(in_features=512, out_features=48, bias=False)
              (dt_proj): Linear(in_features=16, out_features=512, bias=True)
              (conv1d_b): Conv1d(512, 512, kernel_size=(4,), stride=(1,), padding=(3,), groups=512)
              (x_proj_b): Linear(in_features=512, out_features=48, bias=False)
              (dt_proj_b): Linear(in_features=16, out_features=512, bias=True)
              (out_proj): Linear(in_features=512, out_features=256, bias=False)
            )
          )
        )
        (pre_norms): ModuleList(
          (0-2): 3 x Identity()
          (3-4): 2 x LayerNorm((256,), eps=1e-12, elementwise_affine=True)
        )
      )
      (26): MambaCellBlock(
        (final_norm): LayerNorm((256,), eps=1e-12, elementwise_affine=True)
        (modules_list): ModuleList(
          (0-2): 3 x IdentityModule()
          (3): ConvolutionModuleWrapper(
            (conv): ConvolutionModule(
              (pointwise_conv1): Conv1d(256, 512, kernel_size=(1,), stride=(1,))
              (depthwise_conv): Conv1d(256, 256, kernel_size=(31,), stride=(1,), padding=(15,), groups=256)
              (norm): BatchNorm1d(256, eps=1e-05, momentum=0.1, affine=True, track_running_stats=True)
              (pointwise_conv2): Conv1d(256, 256, kernel_size=(1,), stride=(1,))
              (activation): Swish()
            )
          )
          (4): BiMambaModule(
            (mamba): Mamba(
              (in_proj): Linear(in_features=256, out_features=1024, bias=False)
              (conv1d): Conv1d(512, 512, kernel_size=(4,), stride=(1,), padding=(3,), groups=512)
              (act): SiLU()
              (x_proj): Linear(in_features=512, out_features=48, bias=False)
              (dt_proj): Linear(in_features=16, out_features=512, bias=True)
              (conv1d_b): Conv1d(512, 512, kernel_size=(4,), stride=(1,), padding=(3,), groups=512)
              (x_proj_b): Linear(in_features=512, out_features=48, bias=False)
              (dt_proj_b): Linear(in_features=16, out_features=512, bias=True)
              (out_proj): Linear(in_features=512, out_features=256, bias=False)
            )
          )
        )
        (pre_norms): ModuleList(
          (0-2): 3 x Identity()
          (3-4): 2 x LayerNorm((256,), eps=1e-12, elementwise_affine=True)
        )
      )
      (27): MambaCellBlock(
        (final_norm): LayerNorm((256,), eps=1e-12, elementwise_affine=True)
        (modules_list): ModuleList(
          (0-2): 3 x IdentityModule()
          (3): ConvolutionModuleWrapper(
            (conv): ConvolutionModule(
              (pointwise_conv1): Conv1d(256, 512, kernel_size=(1,), stride=(1,))
              (depthwise_conv): Conv1d(256, 256, kernel_size=(31,), stride=(1,), padding=(15,), groups=256)
              (norm): BatchNorm1d(256, eps=1e-05, momentum=0.1, affine=True, track_running_stats=True)
              (pointwise_conv2): Conv1d(256, 256, kernel_size=(1,), stride=(1,))
              (activation): Swish()
            )
          )
          (4): BiMambaModule(
            (mamba): Mamba(
              (in_proj): Linear(in_features=256, out_features=1024, bias=False)
              (conv1d): Conv1d(512, 512, kernel_size=(4,), stride=(1,), padding=(3,), groups=512)
              (act): SiLU()
              (x_proj): Linear(in_features=512, out_features=48, bias=False)
              (dt_proj): Linear(in_features=16, out_features=512, bias=True)
              (conv1d_b): Conv1d(512, 512, kernel_size=(4,), stride=(1,), padding=(3,), groups=512)
              (x_proj_b): Linear(in_features=512, out_features=48, bias=False)
              (dt_proj_b): Linear(in_features=16, out_features=512, bias=True)
              (out_proj): Linear(in_features=512, out_features=256, bias=False)
            )
          )
        )
        (pre_norms): ModuleList(
          (0-2): 3 x Identity()
          (3-4): 2 x LayerNorm((256,), eps=1e-12, elementwise_affine=True)
        )
      )
      (28): MambaCellBlock(
        (final_norm): LayerNorm((256,), eps=1e-12, elementwise_affine=True)
        (modules_list): ModuleList(
          (0-2): 3 x IdentityModule()
          (3): ConvolutionModuleWrapper(
            (conv): ConvolutionModule(
              (pointwise_conv1): Conv1d(256, 512, kernel_size=(1,), stride=(1,))
              (depthwise_conv): Conv1d(256, 256, kernel_size=(31,), stride=(1,), padding=(15,), groups=256)
              (norm): BatchNorm1d(256, eps=1e-05, momentum=0.1, affine=True, track_running_stats=True)
              (pointwise_conv2): Conv1d(256, 256, kernel_size=(1,), stride=(1,))
              (activation): Swish()
            )
          )
          (4): BiMambaModule(
            (mamba): Mamba(
              (in_proj): Linear(in_features=256, out_features=1024, bias=False)
              (conv1d): Conv1d(512, 512, kernel_size=(4,), stride=(1,), padding=(3,), groups=512)
              (act): SiLU()
              (x_proj): Linear(in_features=512, out_features=48, bias=False)
              (dt_proj): Linear(in_features=16, out_features=512, bias=True)
              (conv1d_b): Conv1d(512, 512, kernel_size=(4,), stride=(1,), padding=(3,), groups=512)
              (x_proj_b): Linear(in_features=512, out_features=48, bias=False)
              (dt_proj_b): Linear(in_features=16, out_features=512, bias=True)
              (out_proj): Linear(in_features=512, out_features=256, bias=False)
            )
          )
        )
        (pre_norms): ModuleList(
          (0-2): 3 x Identity()
          (3-4): 2 x LayerNorm((256,), eps=1e-12, elementwise_affine=True)
        )
      )
    )
    (after_norm): LayerNorm((256,), eps=1e-12, elementwise_affine=True)
  )
  (criterion_att): LabelSmoothingLoss(
    (criterion): KLDivLoss()
  )
  (ctc): CTC(
    (ctc_lo): Linear(in_features=256, out_features=1000, bias=True)
    (ctc_loss): CTCLoss()
  )
)

Model summary:
    Class Name: ESPnetASRModel
    Total Number of model parameters: 22.10 M
    Number of trainable parameters: 22.10 M (100.0%)
    Size: 88.41 MB
    Type: torch.float32
[gpusystem] 2025-12-19 05:49:55,265 (abs_task:1459) INFO: Optimizer:
AdamW (
Parameter Group 0
    amsgrad: False
    betas: [0.9, 0.999]
…
